Joint_training/E9_kmeans_train_query_9class/classifier_trained.pth (torch_old, 259668 bytes, 10 tensors)

weight f4 [6, 1, 5, 5]
0.09574498 -0.08939426 0.024733782 0.15810306 -0.2218498 0.10017397 -0.016618444 0.1625018
0.024186663 -0.057171922 0.08604917 0.029828757 0.08347413 -0.103662804 -0.03899835 0.012641871
0.044719648 -0.009731106 0.1413461 0.08349105 -0.040005267 -0.1429168 -0.080700256 -0.12908363
-0.049432337 -0.011824901 0.0965281 0.06425052 -0.33942536 0.025508853 0.0043003764 0.14322157
0.060995184 -0.27163422 -0.31982648 -0.12830961 0.14296705 -0.082897805 0.038117256 -0.19724086
0.16121548 -0.13073088 0.122607484 -0.07245333 -0.25725666 0.074535795 -0.15238032 0.00560114
-0.12819847 -0.08992042 -0.10729846 -0.025560569 0.0982551 -0.015838033 0.30736527 0.20834582
0.033332895 -0.13831472 0.13061996 0.07726448 -0.032135714 0.23597538 0.22921273 0.17399591
-0.2328181 -0.046576947 -0.049951226 0.0016085622 -0.29502413 -0.49318275 0.18482873 -0.009960218
0.06627019 -0.13491614 -0.17144726 -0.028481727 -0.2757427 -0.15778503 -0.1177234 0.2951623
-0.45062914 -0.6885367 -0.2428861 0.19384423 0.48830238 -0.64499056 -0.7874632 0.1155018
0.23809397 0.57681406 -0.32486635 -0.24428037 0.3262395 0.44931728 0.1787085 -0.3617904
0.071125604 0.4980671 0.2939955 0.19670936 0.79937387 0.44951096 0.1749748 0.3158162
-0.45428824 0.2667874 0.3141932 0.25164685 0.504984 -0.41889283 0.47766903 0.21920216
0.42105117 0.5561875 -0.008392094 0.42744052 0.50823903 0.43646452 0.33613494 -0.20112742
-0.17662165 0.20884389 0.44984528 0.105263196 -0.087679476 -0.074910134 -0.17642593 0.15818125
0.141601 0.24272779 -0.08569129 0.24441521 0.32072976 0.12947933 0.22533228 0.11596767
0.45290333 0.40978724 0.22654857 0.3643406 -0.22055149 0.289472 0.2775221 0.28509638
0.54195404 -0.2624121 -0.10732994 0.13790621 0.30715963 0.53799456
00000000: f215 c43d 5614 b7bd 809e ca3c c5e5 213e
00000010: 982c 63be 0328 cd3d 6723 88bc df66 263e
00000020: 1c23 c63c 1b2d 6abd 8c3a b03d 705b f43c
00000030: 7cf4 aa3d 2a4d d4bd bcbc 1fbd da1f 4f3c
00000040: f32b 373d 386f 1fbc 08bd 103e 5bfd aa3d
00000050: 90dc 23bd c858 12be 2d46 a5bd 802e 04be
00000060: 9079 4abd 3bbd 41bc 86b0 c53d c795 833d
00000070: 29c9 adbe f1f7 d03c 2cea 8c3b ada8 123e
00000080: 16d6 793d a413 8bbe 4cc0 a3be 9863 03be
00000090: f465 123e 53c6 a9bd d720 1c3d 82f9 49be
000000a0: ac15 253e 51de 05be a219 fb3d 6962 94bd
000000b0: 25b7 83be 39a6 983d 9609 1cbe c589 b73b
000000c0: 7646 03be 3228 b8bd 4cbf dbbd 6664 d1bc
000000d0: f839 c93d c3be 81bc fb5e 9d3e 9b58 553e
000000e0: 1388 083d 60a2 0dbe 3dc1 053e d73c 9e3d
000000f0: bda0 03bd 88a3 713e beb6 6a3e fc2b 323e
00000100: de67 6ebe 78c7 3ebd a899 4cbd 64d6 d23a
00000110: 670d 97be 7382 fcbe be43 3d3e 2f30 23bc
00000120: aab8 873d 7527 0abe df8f 2fbe 8352 e9bc
00000130: 262e 8dbe 6692 21be f718 f1bd 831f 973e
00000140: ddb8 e6be f143 30bf 22b7 78be 1a7f 463e
00000150: c502 fa3e 1a1e 25bf 3097 49bf 358c ec3d
00000160: e8ce 733e 16aa 133f e254 a6be a224 7abe
00000170: dd08 a73e ea0c e63e 5cff 363e 973c b9be
00000180: 4daa 913d a702 ff3e 9486 963e 2e6e 493e
00000190: c4a3 4c3f 4d26 e63e 982c 333e a9b2 a13e
000001a0: 7898 e8be 5c98 883e eedd a03e dbd7 803e
000001b0: a246 013f 1f79 d6be 0991 f43e 8876 603e
000001c0: 0594 d73e 4e62 0e3f fe7e 09bc 7cd9 da3e
000001d0: f41b 023f 4778 df3e e119 ac3e 59f4 4dbe
000001e0: 4edc 34be 2cdb 553e 1f52 e63e 3b94 d73d
000001f0: 4c91 b3bd 7c6a 99bd 00a9 34be 44fa 213e
00000200: daff 103e a28d 783e ea7e afbd fb47 7a3e
00000210: b136 a43e 3b96 043e 81bd 663e 7580 ed3d
00000220: f2e2 e73e a2cf d13e 59fc 673e da8a ba3e
00000230: 40d8 61be ad35 943e 6017 8e3e 27f8 913e
00000240: 80bd 0a3f e15a 86be cdcf dbbd 4937 0d3e
00000250: 0744 9d3e 03ba 093f

bias f4 [6]
-0.03352074 0.52530915 -7.28378e-05 0.33435595 -0.9241833 -0.7821721
00000000: 0b4d 09bd a97a 063f 7fc0 98b8 b430 ab3e
00000010: 4797 6cbf 6e3c 48bf

weight f4 [16, 6, 5, 5]
-0.04683666 -0.034955874 0.05794956 -0.02503649 -0.060084958 0.031157488 0.02628602 0.054473102
-0.038430505 0.020513332 -0.030080127 -0.017674373 -0.062784314 -0.03383562 -0.023307668 0.03488044
0.01736182 0.022916881 0.08302236 0.07800593 0.05186631 0.0018133104 -0.058183435 0.059737973
-0.027384635 -0.02361274 -0.09008505 -0.027243657 -0.053842105 0.07014086 -0.09232561 -0.085365556
-0.014035326 -0.05019417 0.02187293 -0.05444346 -0.056586288 -0.0068765553 0.048552774 -0.07396416
0.015239228 0.036858775 0.066568725 -0.07759512 -0.01308465 -0.08299469 0.051548757 -0.051323194
0.015552228 -0.044539794 -0.015456367 -0.006948076 0.011076697 0.033857636 0.007336769 0.0141370455
-0.078299515 0.054426633 0.064001866 0.0578676 0.048789553 -0.06436495 -0.036607467 0.0606579
-0.07757545 0.06147576 -0.072978735 -0.07074709 0.019894393 -0.079917155 -0.0338188 0.0435348
0.043135364 0.0509305 -0.04233018 -0.062993534 0.08178454 -0.017114706 -0.034204997 0.019571332
-0.056357242 0.055256702 0.0513918 -0.06530208 -0.06743213 -0.0064910147 0.036468115 -0.0015325329
-0.040878575 0.0026284975 -0.07608861 -0.05558005 -0.052593444 0.06818167 0.07273234 -0.028447166
0.0054661864 0.03786906 0.010881682 -0.04059547 -0.016241947 -0.0055279937 -0.045931704 -0.048126906
0.035420977 -0.0006298271 -0.107123345 0.032236077 -0.0256945 -0.10023858 -0.031159882 -0.12438833
0.018843723 -0.11165614 -0.041661985 -0.056047745 -0.053649317 -0.00540726 -0.12001275 -0.12472941
-0.1560498 -0.09208742 -0.1324074 -0.10790995 -0.12594835 -0.020236054 0.03519174 -0.007472364
-0.06328433 -0.08074132 -0.124046184 0.027951285 -0.055557396 -0.03087643 -0.04650782 -0.11018621
-0.0034606296 -0.0075942534 -0.056769077 -0.11060392 -0.1009286 -0.06334746 -0.11825653 -0.12762854
-0.09294799 -0.09808471 -0.05702311 -0.11254382 -0.10917921 -0.11939686 -0.077401854 0.068789005
0.013798998 0.0720683 -0.014580772 -0.022790797 -0.07922481 -0.0330405 0.05269456 -0.08103506
-0.030773392 0.04682338 0.04426462 0.027972601 -0.018733287 -0.007904794 -0.018720409 -0.033300295
0.031421334 -0.030041326 -0.0471694 0.016037367 -0.06169939 -0.019245693 0.04111084 0.008593087
0.042163137 -0.07833286 -0.009241872 -0.034712423 -0.07038256 -0.07570357 0.0005330651 -0.0009031271
-0.053104106 -0.08181983 -0.09490416 0.062073834 -0.02141151 -0.028363787 -0.051485702 -0.06419993
-0.09211288 -0.05231106 0.046916343 0.00016486703 -0.050810717 -0.045265958 0.05110591 0.061400034
0.05909337 0.008577468 0.03235938 -0.009970084 -0.052020356 -0.09763168 0.039593935 -0.015450937
0.031207064 -0.00017719918 -0.089500025 -0.04757981 0.021305628 -0.018457673 -0.080660425 0.020890316
-0.0009779132 -0.02606803 0.033061575 0.018691547 -0.03675805 0.07111834 0.043144364 0.012706146
-0.01360157 -0.069165505 0.064585246 -0.019237818 -0.051905945 0.05243433 0.028657183 0.021653885
-0.01531102 -0.024776671 0.014003826 0.06261489 0.0126990415 -0.03816278 0.0810159 0.0011290961
0.0641852 0.019941146 0.07282605 0.045979124 -0.04296151 0.05691977 0.00059042213 -0.06648341
-0.018717328 -0.07526475 -0.11791216 -0.13495587 -0.0014964534 -0.056557357 -0.04393393 -0.036476955
00000000: ccd7 3fbd e42d 0fbd 855c 6d3d 5319 cdbc
00000010: a51b 76bd fd3d ff3c c855 d73c 301f 5f3d
00000020: 4e69 1dbd 930b a83c 996a f6bc d9c9 90bc
00000030: 1095 80bd 3897 0abd b9ef bebc cbde 0e3d
00000040: 603a 8e3c 2fbc bb3c a107 aa3d 93c1 9f3d
00000050: c571 543d 9aac ed3a c151 6ebd ceaf 743d
00000060: be55 e0bc 816f c1bc 837e b8bd 172e dfbc
00000070: 8a89 5cbd 03a6 8f3d 3615 bdbd 23d4 aebd
00000080: 6df4 65bc 6798 4dbd dc2e b33c 1b00 5fbd
00000090: 06c7 67bd ba54 e1bb 46df 463d 867a 97bd
000000a0: f4ad 793c 3af9 163d 2f55 883d 31ea 9ebd
000000b0: 0061 56bc 1ff9 a9bd ca24 533d 4538 52bd
000000c0: c6ce 7e3c 5c6f 36bd b43c 7dbc b0ac e3bb
000000d0: 097b 353c 4eae 0a3d 4769 f03b 119f 673c
000000e0: 7f5b a0bd 76ee 5e3d 6913 833d 9406 6d3d
000000f0: 8ed7 473d c5d1 83bd b6f1 15bd 6b74 783d
00000100: e1df 9ebd 02ce 7b3d e075 95bd dae3 90bd
00000110: 91f9 a23c 9bab a3bd 9585 0abd 8c51 323d
00000120: b5ae 303d 809c 503d 6962 2dbd c102 81bd
00000130: a77e a73d 2434 8cbc 8a1a 0cbd 0f54 a03c
00000140: dad6 66bd da54 623d 3580 523d 19bd 85bd
00000150: db19 8abd 94b2 d4bb 975f 153d 45df c8ba
00000160: 4b70 27bd df42 2c3b 58d4 9bbd e8a7 63bd
00000170: 396c 57bd d5a2 8b3d b1f4 943d 080a e9bc
00000180: b21d b33b 961c 1b3d 1549 323c 7047 26bd
00000190: d50d 85bc 2c24 b5bb e222 3cbd b820 45bd
000001a0: 9615 113d fb1a 25ba 7c63 dbbd fa09 043d
000001b0: 467d d2bc e249 cdbd 0243 ffbc 4fbf febd
000001c0: 275e 9a3c f9ab e4bd c2a5 2abd 5292 65bd
000001d0: 63bf 5bbd 622f b1bb 3fc9 f5bd 2272 ffbd
000001e0: 85cb 1fbe 5498 bcbd ce95 07be e4ff dcbd
000001f0: 9bf8 00be 15c6 a5bc 3725 103d bcda f4bb
00000200: 379b 81bd b55b a5bd ed0b febd 18fa e43c
00000210: 2790 63bd 91f0 fcbc fc7e 3ebd 4fa9 e1bd
00000220: bbcb 62bb 37d9 f8bb b186 68bd 4f84 e2bd
00000230: a7b3 cebd 50bc 81bd 7b30 f2bd 0eb1 02be
00000240: 845b bebd a3e0 c8bd 1191 69bd 607d e6bd
00000250: 5a99 dfbd 5786 f4bd dd84 9ebd 40e1 8c3d
00000260: 3115 623c 8b98 933d 31e4 6ebc c4b3 babc
00000270: 9e40 a2bd 7a55 07bd 40d6 573d b6f5 a5bd
00000280: 7b18 fcbc dfc9 3f3d d14e 353d cc26 e53c
00000290: 8d76 99bc 1c83 01bc 8b5b 99bc e465 08bd
000002a0: a8b3 003d 3a19 f6bc b334 41bd cc60 833c
000002b0: 80b8 7cbd 25a9 9dbc d763 283d 05ca 0c3c
000002c0: 41b3 2c3d fa6c a0bd 386b 17bc 9d2e 0ebd
000002d0: bb24 90bd 790a 9bbd 65bd 0b3a d5bf 6cba
000002e0: b183 59bd 2891 a7bd 1d5d c2bd 2241 7e3d
000002f0: 3167 afbc 2c5b e8bc ace2 52bd 417b 83bd
00000300: ada5 bcbd 1f44 56bd 5a2b 403d 28e0 2c39
00000310: e61e 50bd cc68 39bd 6e54 513d 9a7e 7b3d
00000320: e40b 723d 8288 0c3c 458b 043d 9059 23bc
00000330: 4c13 55bd 1ef3 c7bd 402d 223d ed25 7dbc
00000340: f5a5 ff3c 8bce 39b9 ca4b b7bd 0ce3 42bd
00000350: 2489 ae3c 8c34 97bc 4b31 a5bd 2b22 ab3c
00000360: 522d 80ba 9f8c d5bc 936b 073d 041f 993c
00000370: 9c8f 16bd 7ea6 913d 25b8 303d 702d 503c
00000380: 1fd9 5ebc a5a6 8dbd 4545 843d a198 9dbc
00000390: 549b 54bd 61c5 563d 78c2 ea3c 7d63 b13c
000003a0: 13db 7abc 72f8 cabc 4e70 653c 3c3c 803d
000003b0: a40f 503c 9350 1cbd aaeb a53d 2efe 933a
000003c0: 8873 833d 9d5b a33c d325 953d 9b54 3c3d
000003d0: 69f8 2fbd b424 693d 8fc6 1a3a 7428 88bd
000003e0: 1555 99bc 6824 9abd ee7b f1bd df31 0abe
000003f0: a524 c4ba b0a8 67bd 11f4 33bd dc68 15bd

bias f4 [16]
-0.047992136 -0.075729124 -0.0049031437 0.0024045946 0.05133016 -0.042053223 -0.08344396 0.17637148
-0.059716627 -0.13052863 -0.104534484 -0.049301594 0.0023707023 -0.04797749 0.061316617 0.29294866
00000000: 6793 44bd df17 9bbd 8daa a0bb 6796 1d3b
00000010: 933f 523d 0040 2cbd abe4 aabd ba9a 343e
00000020: 6c99 74bd 4ca9 05be 2d16 d6bd 78f0 49bd
00000030: c95d 1b3b 0b84 44bd 2227 7b3d 5efd 953e

weight f4 [120, 400]
-0.040080644 0.009327491 0.027646001 -0.0418752 -0.01721937 0.037419815 -0.037037782 0.043245926
0.00023203828 0.0054140934 0.040140618 -0.056888066 0.030825252 -0.05694503 0.017275522 -0.008430386
0.024480667 -0.015043461 -0.06097279 -0.0002602735 0.027490538 -0.01743949 -0.051577598 -0.010620948
-0.0008278706 0.009813172 0.012568839 -0.012789132 -0.006354598 -0.011265506 0.012630893 0.002741242
0.00915192 -0.011110089 -0.0045736656 0.03092677 -0.0014249671 -0.051972784 0.0068804575 0.047683552
-0.011672731 0.028349299 -0.03580363 -0.008478959 0.03487803 -0.02603915 -0.013631346 0.0009319228
-0.0077903224 -0.014123684 0.032551665 -0.0109161 -0.016841497 0.03512967 0.009831428 -0.02757585
0.026477572 -0.029724665 0.047422774 0.04203185 -0.000506373 0.008985812 -0.024865827 -0.04102728
-0.034772586 0.012139516 0.02149856 -0.002285985 -0.019023674 -0.016882215 -0.029658126 -0.031889126
0.032241385 -0.045584023 0.0347984 0.026904454 -0.015762825 -0.008409359 -0.017706865 -0.042677883
-0.00015490981 -0.04594232 -0.0065070586 -0.022082746 -0.041778285 -0.047256917 0.040057603 0.032243356
0.041011736 0.0144642 0.02623152 0.025572123 0.036256913 0.0071632117 0.0031504002 0.03986844
0.023649778 -0.03142468 0.03329618 0.048179444 -0.022068528 -0.04917776 -0.009517886 -0.036373377
0.043104958 -0.009694131 -0.0263154 0.027833033 0.011871528 0.006812067 0.04145696 -0.059050318
0.013318469 -0.03392299 0.009285075 -0.026248636 0.03291097 -0.020928372 -0.0027044313 -0.043335006
0.022260435 -0.056007914 0.023010677 0.030615795 0.033151485 0.029940616 -0.015677126 0.011740838
0.015063303 -0.047585472 0.029280238 -0.038612965 0.020669444 0.049179103 -0.015243171 0.009580329
0.047157396 0.037287317 0.03646317 -0.040082365 0.010631741 -0.044730913 0.0015811749 -0.053715527
0.0005931017 0.024325924 -0.047679964 -0.011746194 -0.021842906 0.039998382 -0.0006484851 0.033315044
-0.035697967 0.0068040816 0.036246188 0.007030012 -0.01829914 -0.02351895 0.030483052 0.017674576
0.0015106442 0.01895266 -0.04346641 -0.051179588 -0.01709584 0.032727122 -0.06208601 -0.04196291
0.0021080743 0.014373944 0.024585912 0.0127759185 -0.045809377 -0.015308666 0.030810444 0.0073901336
0.0324948 0.043941606 0.012277813 -0.025775425 -0.024311813 -0.0153994765 -0.05664149 -0.0405106
-0.07916091 0.0058100587 0.03052981 -0.07168794 -0.015925009 -0.08462029 0.0032618502 -0.041725736
0.039434925 -0.058564976 -0.021729589 0.03295017 0.026681764 0.039114237 0.014801312 -0.044723302
-0.03505578 0.034232963 -0.048687547 0.04503036 -0.008465607 0.009136982 -0.002143285 -0.01260173
-0.012261722 0.014907207 -0.008781574 0.008455833 0.041901726 0.00450728 -0.039258797 -0.037854962
0.031790774 0.01747987 0.009592377 -0.024947142 -0.040946316 0.04301304 -0.046984177 -0.024904406
0.019540291 -0.03285586 -0.012367331 -0.10703034 -0.036244433 0.05512964 0.030193785 -0.04637695
0.048857454 0.016524225 0.05773987 0.15552562 0.13283359 0.020469246 0.024743645 -0.026008423
-0.036986325 -0.048340198 0.041941915 0.020674342 0.15598129 0.064045504 -0.20433871 -0.107361965
0.05734097 -0.09273203 0.02690702 0.030154286 0.04348499 -0.040552564 0.0377542 -0.004954389
00000000: 9a2b 24bd 55d2 183c de79 e23c 5485 2bbd
00000010: a30f 8dbc 8545 193d eeb4 17bd a422 313d
00000020: 4d4f 7339 b568 b13b 7d6a 243d 7603 69bd
00000030: 3d85 fc3c 313f 69bd 6585 8d3c 9a1f 0abc
00000040: ae8b c83c d978 76bc 9bbe 79bd 5175 88b9
00000050: d633 e13c 43dd 8ebc 0843 53bd 7c03 2ebc
00000060: 7505 59ba 6dc7 203c 88ed 4d3c 8289 51bc
00000070: 3b3a d0bb f592 38bc cef1 4e3c 69a6 333b
00000080: eff1 153c 1707 36bc b0de 95bb 235a fd3c
00000090: f6c5 baba 6ae1 54bd 7675 e13b d44f 433d
000000a0: fb3e 3fbc ca3c e83c d4a6 12bd 55eb 0abc
000000b0: 44dc 0e3d 0e50 d5bc 0256 5fbc 484c 743a
000000c0: f645 ffbb 0667 67bc e554 053d 71d9 32bc
000000d0: 2ef7 89bc 21e4 0f3d ff13 213c c0e6 e1bc
000000e0: 7ee7 d83c 2481 f3bc 623e 423d 9729 2c3d
000000f0: 1ebe 04ba 3a39 133c 6bb3 cbbc 390c 28bd
00000100: b36d 0ebd d2e4 463c c01d b03c 77d0 15bb
00000110: 89d7 9bbc 924c 8abc 99f5 f2bc 2c9e 02bd
00000120: 8b0f 043d 50b6 3abd c488 0e3d bb66 dc3c
00000130: 0a21 81bc 68c7 09bc fd0d 91bc 01cf 2ebd
00000140: 496f 22b9 042e 3cbd 2a39 d5bb e0e6 b4bc
00000150: b51f 2bbd 7890 41bd 7113 243d 9c11 043d
00000160: ecfb 273d 40fb 6c3c 7ce3 d63c a17c d13c
00000170: 2182 143d 60b9 ea3b f276 4e3b 174d 233d
00000180: 2ebd c13c 2ab7 00bd 9361 083d cf57 453d
00000190: 0fc9 b4bc 9e6e 49bd e8f0 1bbc 40fc 14bd
000001a0: d38e 303d 22d4 1ebc 6593 d7bc 1a02 e43c
000001b0: cc80 423c c237 df3b c6ce 293d bfde 71bd
000001c0: b535 5a3c d5f2 0abd 6d20 183c 6107 d7bc
000001d0: a7cd 063d fa71 abbc d43c 31bb 0c80 31bd
000001e0: 845b b63c 8e68 65bd e380 bc3c facd fa3c
000001f0: dac9 073d 0646 f53c 516d 80bc a55c 403c
00000200: 12cc 763c fce8 42bd 1cdd ef3c a128 1ebd
00000210: f752 a93c 0770 493d 7ebe 79bc d0f6 1c3c
00000220: 1d28 413d 96ba 183d 685a 153d 682d 24bd
00000230: c130 2e3c c337 37bd 6d3f cf3a d004 5cbd
00000240: 627a 1b3a 2947 c73c 114c 43bd 1c73 40bc
00000250: e5ef b2bc 58d5 233d 19ff 29ba 5b75 083d
00000260: 0838 12bd c6f4 de3b e276 143d 045c e63b
00000270: 14e8 95bc d0aa c0bc 98b7 f93c 46ca 903c
00000280: cf00 c63a 9c42 9b3c d609 32bd b0a1 51bd
00000290: 930c 8cbc e00c 063d e64d 7ebd 4de1 2bbd
000002a0: 9e27 0a3b b180 6b3c 6568 c93c 1652 513c
000002b0: 9da2 3bbd 33d1 7abc 2f66 fc3c ef28 f23b
000002c0: 4419 053d 1dfc 333d e128 493c fc26 d3bc
000002d0: 9129 c7bc 164e 7cbc e800 68bd 71ee 25bd
000002e0: 1d1f a2bd 4e62 be3b a719 fa3c 20d1 92bd
000002f0: 2a75 82bc 674d adbd c4c4 553b 9be8 2abd
00000300: 8486 213d d4e1 6fbd 4002 b2bc c2f6 063d
00000310: b793 da3c 4036 203d 3481 723c c82f 37bd
00000320: a696 0fbd dd37 0c3d 986c 47bd c171 383d
00000330: 54b3 0abc 48b3 153c 5b76 0cbb 7d77 4ebc
00000340: 64e5 48bc 5c3d 743c 97e0 0fbc 568a 0a3c
00000350: 25a1 2b3d ceb1 933b d5cd 20bd ce0d 1bbd
00000360: 0b37 023d f231 8f3c 5829 1d3c f35d ccbc
00000370: 53b7 27bd 712e 303d 7b72 40bd 5304 ccbc
00000380: f612 a03c de93 06bd 59a0 4abc b932 dbbd
00000390: 0b75 14bd 9ecf 613d f558 f73c c2f5 3dbd
000003a0: c11e 483d d05d 873c a480 6c3d 1c42 1f3e
000003b0: 8705 083e 1faf a73c 2fb3 ca3c 9e0f d5bc
000003c0: f97e 17bd 5f00 46bd 49cb 2b3d 3d5d a93c
000003d0: 8fb9 1f3e 4a2a 833d 2b3e 51be 97e0 dbbd
000003e0: 5dde 6a3d 4aea bdbd 1c6c dc3c 1f06 f73c
000003f0: 511d 323d 721a 26bd 26a4 1a3d 6d58 a2bb

bias f4 [120]
0.041790538 0.039334532 -0.017420365 0.0451324 0.011296973 -0.025418606 0.13443011 -0.022901954
-0.02836734 0.022739056 -0.07998132 -0.06781121 -0.044601608 -0.055125423 -0.017010696 -0.048136074
-0.023830792 -0.0886933 -0.023020076 -0.029035069 -0.013073189 -0.054279983 0.05563469 0.029361863
0.069200285 -0.022301681 -0.01710207 0.036934905 -0.009801192 -0.019260615 -0.016537882 0.013105908
-0.04332317 0.061479125 -0.01219227 -0.031215625 -0.024168853 -0.08127382 -0.023561943 0.13192753
0.012195794 0.13844326 -0.04069001 -0.03278272 -0.033567622 -0.08850273 0.13227011 0.010191617
0.060474567 -0.029125296 0.027236825 0.053037252 0.11878917 -0.055960458 0.04640685 0.04395467
-0.103521146 -0.019347966 -0.04286885 -0.039700653 -0.067025065 -0.0656908 -0.050285157 -0.016790703
0.19627044 0.052126404 -0.03560309 0.08289912 -0.023502294 -0.045595214 -0.055514965 -0.038031578
-0.030693933 0.023716206 0.057870116 0.008461141 -0.060060017 -0.0131651005 -0.023028946 -0.029311193
0.16348007 0.027101256 -0.019333163 -0.019644352 -0.037292544 -0.036775406 -0.030930556 -0.11324549
-0.008647547 -0.0017207565 0.012289837 0.045751568 0.0054907375 -0.01071425 -0.035390873 -0.012022112
0.005529919 0.043540724 -0.063408576 -0.07809824 -0.0133351255 0.13867758 -0.036290254 -0.036266327
0.005637236 0.0030288966 0.0014088312 0.12472314 -0.038927253 0.040351003 0.049725723 -0.025555972
0.053796694 -0.006351903 0.06870634 0.036623623 0.055514622 -0.04698071 0.23014915 -0.010483848
00000000: 8e2c 2b3d 3f1d 213d 27b5 8ebc c0dc 383d
00000010: f016 393c ae3a d0bc 0ca8 093e e19c bbbc
00000020: a062 e8bc 4247 ba3c 3fcd a3bd 9be0 8abd
00000030: 2db0 36bd 32cb 61bd 045a 8bbc 552a 45bd
00000040: cb38 c3bc d5a4 b5bd 9994 bcbc f4da edbc
00000050: ee30 56bc b054 5ebd 33e1 633d 4a88 f03c
00000060: e1b8 8d3d 04b2 b6bc a419 8cbc 0e49 173d
00000070: 2e95 20bc 70c8 9dbc 747a 87bc 2aba 563c
00000080: a373 31bd 89d1 7b3d 16c2 47bc e9b7 ffbc
00000090: c2fd c5bc e372 a6bd fa04 c1bc 0318 073e
000000a0: ded0 473c 12c4 0d3e 91aa 26bd 2c47 06bd
000000b0: 347e 09bd eb40 b5bd d171 073e bdfa 263c
000000c0: 2eb4 773d 2c98 eebc c31f df3c 973d 593d
000000d0: bd47 f33d cb36 65bd 1c15 3e3d d009 343d
000000e0: e502 d4bd a07f 9ebc 3f97 2fbd 279d 22bd
000000f0: 7044 89bd e688 86bd cff7 4dbd a88c 89bc
00000100: 1efb 483e 7f82 553d 8cd4 11bd 04c7 a93d
00000110: e287 c0bc 0cc2 3abd a963 63bd 00c7 1bbd
00000120: d871 fbbc 7d48 c23c 3709 6d3d 99a0 0a3c
00000130: 7e01 76bd 6fb2 57bc 33a7 bcbc 071e f0bc
00000140: 5267 273e 7403 de3c 9560 9ebc 31ed a0bc
00000150: 11c0 18bd cfa1 16bd 1462 fdbc 40ed e7bd
00000160: 71ae 0dbc 028b e1ba 505b 493c ff65 3b3d
00000170: a5eb b33b d28a 2fbc 05f6 10bd 64f8 44bc
00000180: 5334 b53b c257 323d 5bdc 81bd f8f1 9fbd
00000190: 927b 5abc 7f01 0e3e 17a5 14bd 008c 14bd
000001a0: 90b8 b83b 7480 463b 88a8 b83a d86e ff3d
000001b0: 2f72 1fbd 1847 253d 33ad 4b3d c25a d1bc
000001c0: ec59 5c3d a023 d0bb e9b5 8c3d a702 163d
000001d0: 4d63 633d d86e 40bd 38ac 6b3e 72c4 2bbc

weight f4 [84, 120]
0.0032343476 -0.019197399 0.105327696 -0.022601636 -0.04816032 0.040234663 -0.073440015 -0.09165093
0.01735247 0.031114656 0.04430746 -0.06206973 0.05927557 -0.06830852 0.0056782835 -0.071397915
0.07763708 -0.066120476 -0.02122756 0.07931759 -0.08830768 0.003568462 0.0652481 -0.03139159
0.07691913 -0.044579823 0.021388933 0.017606825 -0.050085153 0.048854582 -0.0038821828 0.0346632
0.006720765 0.042146005 -0.020761864 0.017576871 0.0072924816 -0.07687338 -0.044476748 0.05890718
-0.095299564 -0.059201483 -0.012172807 0.009191549 -0.072287865 -0.04903638 -0.014919667 -0.054481275
-0.004004381 0.010701097 0.04468453 -0.024132604 -0.103639826 0.093375385 -0.019841054 0.036755316
-0.11854717 -0.040570177 0.06179301 -0.033046003 -0.07933626 0.12945217 -0.09357823 0.045498844
-0.0747046 0.05207835 0.0014714944 0.0981778 0.0048361868 -0.033629376 0.10481744 -0.07227463
0.063816436 0.048059754 -0.09015658 -0.10266181 -0.034104936 -0.053753827 -0.012928158 -0.056650955
0.054456104 0.03726613 0.117233194 0.021098047 0.0037134585 0.017455518 -0.041329075 0.001706806
0.039257143 0.033852607 0.027199201 -0.035543863 0.08200332 -0.0938785 -0.052945256 -0.042289454
0.039859056 0.072167434 0.0027984066 -0.031007072 -0.026240477 0.16739617 -0.10169875 0.031220268
0.101642065 0.012832887 0.074966684 0.057089306 0.03919966 -0.095404536 0.06572997 0.0112841325
-0.069081575 -0.048072882 0.032693192 -0.039132047 0.0355712 0.06077671 0.03966785 -0.07990885
0.091334954 0.054875255 0.006810364 -0.010339435 -0.024703158 -0.05101486 0.051105548 -0.14480886
0.13023399 -0.10062796 -0.10589346 0.049597364 -0.013864633 -0.024095863 -0.0198017 -0.03770055
0.06674385 0.06015734 -0.057033036 0.100236595 0.06938835 -0.02924342 -0.0862721 0.017776372
0.06199128 0.12769467 0.025430676 -0.015507687 0.049480125 0.031913713 -0.10170373 -0.12282484
-0.07538166 -0.017892428 0.00450669 0.104191 -0.0594054 0.0137011325 -0.07736442 0.1817711
0.07119391 0.05962737 -0.020389384 -0.11410185 -0.05567395 -0.014054256 0.047482207 -0.07403582
0.093307175 -0.021211116 0.04520256 0.018695712 -0.073034674 -0.059438553 -0.10681546 0.035697185
0.036423847 0.010341136 -0.015567329 0.078684345 0.033182148 0.010357134 -0.071273275 -0.08955729
0.03481212 0.10590259 -0.04922396 -0.020560047 -0.02233703 -0.12887728 0.0013376507 0.04433824
-0.001258137 -0.07658154 0.015909139 -0.12375729 0.03703908 0.03612767 -0.0095753465 -0.023281513
0.10945223 -0.022818416 -0.049477708 -0.017088197 0.015591609 0.04966067 0.044387653 0.011775229
0.053851835 -0.07674782 0.13861649 0.027971102 -0.090765476 0.03829141 0.0112677645 -0.026916364
-0.09705569 0.00091044174 -0.07114786 0.0039439 0.082081154 0.11863358 -0.08710053 -0.020765439
-0.049894888 -0.082845494 -0.05454814 0.11248268 0.0662424 0.11947447 0.063795626 0.053607672
-0.046411693 0.026230983 -0.07443896 0.042933457 0.07911169 0.05648601 0.021037465 -0.023920698
0.02170717 0.034734193 -0.07501501 0.08180578 -0.069872744 0.05902441 -0.029035863 -0.015137474
-0.0886061 0.069788896 0.0029053919 0.014707514 0.011997348 0.004792096 0.12590767 0.044786803
00000000: 59f7 533b dd43 9dbc 0cb6 d73d 1127 b9bc
00000010: c143 45bd 1acd 243d b867 96bd 7cb3 bbbd
00000020: c426 8e3c 2ae4 fe3c bd7b 353d d43c 7ebd
00000030: f1ca 723d 56e5 8bbd e510 ba3b 1239 92bd
00000040: 3000 9f3d 2c6a 87bd 6be5 adbc 4371 a23d
00000050: a8da b4bd dcdc 693b cca0 853d 7894 00bd
00000060: c787 9d3d 5599 36bd d837 af3c 303c 903c
00000070: 1726 4dbd be1b 483d 386c 7ebb 00fb 0d3d
00000080: dd39 dc3b 4aa1 2c3d c914 aabc 5ffd 8f3c
00000090: c5f5 ee3b ca6f 9dbd 402d 36bd a848 713d
000000a0: 6b2c c3bd 417d 72bd 7470 47bc 2798 163c
000000b0: a90b 94bd 5fda 48bd 9e71 74bc c227 5fbd
000000c0: 2f37 83bb a753 2f3c 2007 373d bdb1 c5bc
000000d0: 1e41 d4bd 983b bf3d b589 a2bc be8c 163d
000000e0: dcc8 f2bd ea2c 26bd ab1a 7d3d 3f5b 07bd
000000f0: 0d7b a2bd 1c8f 043e f1a5 bfbd ff5c 3a3d
00000100: bafe 98bd 1c50 553d 29df c03a 7111 c93d
00000110: e078 9e3b f5be 09bd 87aa d63d b904 94bd
00000120: 31b2 823d 4eda 443d 03a4 b8bd 5b40 d2bd
00000130: 9eb1 0bbd f92c 5cbd a0d0 53bc d50a 68bd
00000140: 5d0d 5f3d 5fa4 183d f517 f03d d0d5 ac3c
00000150: 7f5d 733b e0fe 8e3c ad48 29bd e8b6 df3a
00000160: 19cc 203d 08a9 0a3d dcd0 de3c 7196 11bd
00000170: 5bf1 a73d 5f43 c0bd 20dd 58bd b537 2dbd
00000180: 4043 233d 85cc 933d 7965 373b 8b02 febc
00000190: 45f6 d6bc e769 2b3e 6f47 d0bd a6c1 ff3c
000001a0: b729 d03d 0741 523c 2288 993d 7ad6 693d
000001b0: d38f 203d 7463 c3bd 6f9d 863d 15e1 383c
000001c0: a47a 8dbd 12e8 44bd 4ce9 053d ed48 20bd
000001d0: 1bb3 113d 00f1 783d c17a 223d 40a7 a3bd
000001e0: d20d bb3d e0c4 603d 7929 df3b bc66 29bc
000001f0: 475e cabc f5f4 50bd 0d54 513d c648 14be
00000200: 0f5c 053e 0816 cebd acde d8bd 9b26 4b3d
00000210: 7c28 63bc b064 c5bc 2d37 a2bc e46b 1abd
00000220: 00b1 883d 8b67 763d 799b 69bd d848 cd3d
00000230: 7b1b 8e3d e68f efbc 6daf b0bd c19f 913c
00000240: 92ea 7d3d 64c2 023e fe53 d03c f413 7ebc
00000250: acab 4a3d f4b7 023d 0c4a d0bd 978b fbbd
00000260: b361 9abd 2493 92bc dbac 933b 1762 d53d
00000270: 1453 73bd b77a 603c 3d71 9ebd 3422 3a3e
00000280: 1dce 913d d43b 743d a307 a7bc 3bae e9bd
00000290: 5e0a 64bd d243 66bc b47c 423d 18a0 97bd
000002a0: d517 bf3d efc2 adbc 5226 393d c027 993c
000002b0: 3493 95bd d775 73bd 10c2 dabd 3637 123d
000002c0: 2c31 153d de6d 293c 1c0e 7fbc 4225 a13d
000002d0: 01ea 073d f8b0 293c b9f7 91bd d069 b7bd
000002e0: 2797 0e3d 75e3 d83d 109f 49bd 8b6d a8bc
000002f0: 26fc b6bc 68f8 03be 1c54 af3a 049c 353d
00000300: 13e8 a4ba c8d6 9cbd e253 823c 7674 fdbd
00000310: 4ab6 173d 9cfa 133d eae1 1cbc dfb8 bebc
00000320: 7e28 e03d b0ed babc 23a9 4abd 8cfc 8bbc
00000330: f373 7f3c fd68 4b3d d4cf 353d e4ec 403c
00000340: be93 5c3d f62d 9dbd 7bf1 0d3e a723 e53c
00000350: 40e3 b9bd 74d7 1c3d 6e9c 383c b57f dcbc
00000360: 22c5 c6bd b6aa 6e3a f8b5 91bd d53b 813b
00000370: 2a1a a83d 2af6 f23d c361 b2bd 481c aabc
00000380: 955e 4cbd e6aa a9bd df6d 5fbd 525d e63d
00000390: 18aa 873d 08af f43d 48a7 823d b893 5b3d
000003a0: 301a 3ebd 5ce2 d63c 7473 98bd feda 2f3d
000003b0: 4f05 a23d e05d 673d c356 ac3c 57f5 c3bc
000003c0: 3cd3 b13c 7145 0e3d 78a1 99bd ca89 a73d
000003d0: 7119 8fbd 94c3 713d 9edc edbc 2b03 78bc
000003e0: 1d77 b5bd 7bed 8e3d 6368 3e3b c9f7 703c
000003f0: 8690 443c 0407 9d3b f1ed 003e 5e72 373d

bias f4 [84]
-0.0071667046 -0.047698066 0.11358701 -0.0047549894 -0.032877374 0.028898042 -0.008798968 -0.06229288
-0.047383603 -0.034944724 -0.076101676 0.12599178 -0.014544829 -0.047534924 0.0071461285 -0.13369918
-0.068445355 -0.028427081 -0.027139144 -0.034519106 0.11735044 0.375632 -0.040958855 -0.08862061
0.024214195 0.1008702 -0.0011878043 0.09936941 -0.11657817 0.2595855 -0.03319564 -0.055142716
-0.034668878 0.044981442 -0.023542348 -0.020277338 -0.06418895 -0.05703487 -0.0811019 -0.095621124
-0.013352829 -0.09392265 0.1373247 -0.062649816 -0.07301126 0.030801646 -0.03690423 -0.04809287
-0.03499477 -0.056051772 0.2678752 -0.07135304 -0.024483008 -0.07965711 -0.025801789 0.0026461552
-0.119322844 -0.051195208 0.07138583 -0.019897796 -0.14998212 0.019347906 0.047476828 -0.034820408
0.12388559 0.05824181 -0.0027089652 0.05788307 -0.023072481 0.11446763 -0.08193405 -0.033250894
-0.027411556 0.33142328 0.079227194 -0.06851416 -0.016903466 -0.028317241 0.07644864 0.029109262
0.071396135 -0.004572909 -0.04094646 -0.03191789
00000000: add6 eabb 0c5f 43bd 4ea0 e83d becf 9bbb
00000010: 6daa 06bd 96bb ec3c 8c29 10bc d226 7fbd
00000020: 4f15 42bd 3322 0fbd 32db 9bbd fd03 013e
00000030: 6f4d 6ebc fbb3 42bd 122a ea3b 70e8 08be
00000040: 142d 8cbd e9df e8bc e952 debc e863 0dbd
00000050: 6d55 f03d d652 c03e 79c4 27bd b97e b5bd
00000060: d95c c63c 0995 ce3d 19b0 9bba 3082 cb3d
00000070: 89c0 eebd 64e8 843e 27f8 07bd 54dd 61bd
00000080: f400 0ebd 763e 383d e2db c0bc a91c a6bc
00000090: 7f75 83bd 659d 69bd c118 a6bd 02d5 c3bd
000000a0: d3c5 5abc 855a c0bd d99e 0c3e 8c4e 80bd
000000b0: ed86 95bd bc53 fc3c e428 17bd 07fd 44bd
000000c0: ad56 0fbd 8b96 65bd f026 893e 8b21 92bd
000000d0: 9790 c8bc 4423 a3bd 465e d3bc 1e6b 2d3b
000000e0: 895f f4bd 11b2 51bd bc32 923d b400 a3bc
000000f0: ea94 19be 807f 9e3c 1077 423d d89f 0ebd
00000100: bab7 fd3d f78e 6e3d e588 31bb cc16 6d3d
00000110: 8002 bdbc 016e ea3d 0acd a7bd 1732 08bd
00000120: 338e e0bc 50b0 a93e de41 a23d 2751 8cbd
00000130: 2379 8abc 8ff9 e7bc 1b91 9c3d 8c76 ee3c
00000140: 2338 923d 57d8 95bb 7ab7 27bd 55bc 02bd

weight f4 [9, 84]
-0.20568922 -0.026766652 0.07898326 -0.04033026 0.0765623 -0.033748876 0.15893055 0.15426931
-0.08304711 0.18451951 -0.06759692 -0.072019346 0.10108901 -0.104089215 0.13396631 0.14768507
-0.064824454 -0.009667021 0.06794246 0.04561056 -0.27120692 -0.3405221 -0.08129101 0.07347421
0.16925608 -0.18515028 -0.027253225 -0.18598871 0.30877677 -0.2300577 0.09358748 0.26316306
-0.10437587 0.038227938 0.025748275 0.040012375 -0.041114178 -0.050833818 0.15396483 -0.03248794
-0.0015698107 -0.064361446 -0.07484571 -0.05745009 0.10556212 -0.10218629 0.1918848 0.09864776
0.072095156 0.18003716 -0.29261532 0.15335773 -0.12209762 -0.04581195 -0.10023849 -0.09719139
0.2795967 0.10485578 0.079828896 0.046703525 0.2460208 0.18629305 0.12744868 0.16262874
-0.0769329 0.0071123997 0.09212684 -0.092253424 0.2765096 -0.09803957 -0.056146815 0.1304928
0.22962731 -0.30343276 -0.24005228 -0.0579581 0.02090054 0.013584073 -0.18400034 -0.088484794
-0.011337576 0.020374516 -0.16585729 0.04482459 -0.14454344 0.14264531 -0.10033191 -0.26228705
0.047572013 0.08795595 -0.19990267 -0.030463453 0.13169812 0.08487457 -0.36253536 0.22116967
0.08512812 -0.07615937 0.36306074 -0.0929474 -0.21513423 0.1843488 0.22323474 -0.0007383768
-0.16676281 0.20787704 0.112956785 0.03592511 0.29717615 -0.06270644 0.09499486 -0.22927514
0.08906565 0.38144013 -0.24288681 0.35047877 0.049534198 -0.31168413 -0.035189975 0.09339634
0.13091807 0.04697555 0.055281684 -0.042907674 0.052662812 -0.38323152 0.25099537 -0.16791542
-0.14550823 0.15324454 -0.04829724 0.31597084 0.25073785 -0.073724024 0.0002868889 -0.28752872
0.0098478 0.027910748 -0.2374598 0.02223615 -0.0018078476 -0.15133412 -0.33601403 0.10684022
-0.060410704 0.13180616 -0.23613374 -0.22304069 0.22278054 0.25279602 0.2570785 0.124714084
0.182536 0.25957695 -0.0022547052 0.07165394 -0.044251863 0.30415502 -0.1056879 -0.0033809447
-0.19739158 -0.019741174 0.26642737 0.22955269 0.03644671 0.34009746 -0.14710803 -0.28552923
-0.039949913 -0.21178952 0.49622983 -0.17189641 0.18240286 0.15984584 0.1112378 0.14779449
0.03204046 0.01298126 0.24613562 0.113478325 -0.08662855 0.06996367 -0.035765454 0.03631707
0.26435444 -0.09221481 -0.30733505 0.0124299815 -0.25203782 0.14255339 0.12783386 0.17471826
-0.060647033 0.18174897 0.09859996 0.34911498 0.118960254 0.15000585 -0.04253408 -0.029054897
-0.062114555 -0.051822554 -0.23883907 -0.052878376 0.0702671 -0.08387321 -0.26142105 0.05521306
-0.0070021707 0.3001376 0.28667223 0.08867903 -0.074252985 -0.04705069 -0.1776544 -0.0047092345
0.084862396 -0.11605125 0.108178414 0.23557776 0.012555456 0.06846541 -0.31221393 0.020278607
-0.12037865 0.0578246 -0.091003194 -0.10311896 0.029235253 -0.048499968 -0.15296769 -0.36816433
-0.060632408 0.01964857 -0.20739563 -0.055502035 0.34959552 -0.12209792 0.048640154 0.1772456
0.14644046 -0.12323334 0.23568094 0.30359745 -0.039426595 -0.091335766 -0.018542822 -0.014561293
-0.21486105 -0.19831418 0.043235872 -0.15660071 0.116604984 0.0770689 -0.19989598 -0.15614602
00000000: 32a0 52be bd45 dbbc fac1 a13d 5831 25bd
00000010: b2cc 9c3d 433c 0abd b1be 223e c6f8 1d3e
00000020: 9a14 aabd aff2 3c3e 4170 8abd e17e 93bd
00000030: c107 cf3d ba2c d5bd 772e 093e c13a 173e
00000040: afc2 84bd 6d62 1ebc 6b25 8b3d 23d2 3a3d
00000050: a2db 8abe ea58 aebe e77b a6bd a679 963d
00000060: 7751 2d3e 0998 3dbe 2842 dfbc d373 3ebe
00000070: fd17 9e3e 3f94 6bbe cbaa bf3d 4fbd 863e
00000080: 04c3 d5bd e694 1c3d 0cee d23c 04e4 233d
00000090: 5767 28bd 1f37 50bd f5a8 1d3e 1312 05bd
000000a0: 1bc2 cdba efcf 83bd b548 99bd c950 6bbd
000000b0: f430 d83d 0c47 d1bd 737d 443e d607 ca3d
000000c0: a0a6 933d a95b 383e add1 95be cf09 1d3e
000000d0: 510e fabd 50a5 3bbd d649 cdbd 480c c7bd
000000e0: 4c27 8f3e a1be d63d 557d a33d 324c 3f3d
000000f0: e0ec 7b3e 9bc3 3e3e e881 023e 2688 263e
00000100: ff8e 9dbd 220f e93b ffac bc3d 5def bcbd
00000110: ab92 8d3e f8c8 c8bd 34fa 65bd e89f 053e
00000120: 6c23 6b3e 8a5b 9bbe 44d0 75be 7965 6dbd
00000130: 9c37 ab3c bb8f 5e3c 966a 3cbe 8437 b5bd
00000140: 3ec1 39bc 75e8 a63c 7ed6 29be fd99 373d
00000150: 3203 14be 9d11 123e d17a cdbd 7d4a 86be
00000160: dfda 423d 4022 b43d 49b3 4cbe 7e8e f9bc
00000170: dfdb 063e b8d2 ad3d 3c9e b9be 4d7a 623e
00000180: a757 ae3d 72f9 9bbd 19e3 b93e 355b bebd
00000190: 264c 5cbe efc5 3c3e a697 643e a18f 41ba
000001a0: dfc3 2abe b8dd 543e e355 e73d 3526 133d
000001b0: 7927 983e 3c6c 80bd aa8c c23d 1ac7 6abe
000001c0: 0d68 b63d 1f4c c33e 52b7 78be f471 b33e
000001d0: 5fe4 4a3d 1095 9fbe 5d23 10bd 9546 bf3d
000001e0: 630f 063e 6f69 403d 0c6f 623d f5bf 2fbd
000001f0: f6b4 573d ec36 c4be 7782 803e 05f2 2bbe
00000200: 1c00 15be 23ec 1c3e 54d3 45bd eec6 a13e
00000210: b660 803e 9ffc 96bd 9469 9639 f736 93be
00000220: ab58 213c 15a5 e43c a928 73be 9628 b63c
00000230: 4df5 ecba 55f7 1abe 080a acbe 0ccf da3d
00000240: 3771 77bd 32f8 063e 0bcd 71be c764 64be
00000250: 9520 643e 7b6e 813e cb9f 833e 196a ff3d
00000260: b8ea 3a3e 45e7 843e adc3 13bb 4dbf 923d
00000270: 7141 35bd 35ba 9b3e e672 d8bd d792 5dbb
00000280: 0521 4abe 3eb8 a1bc 2b69 883e dc0f 6b3e
00000290: 2549 153d 4121 ae3e 7da3 16be e330 92be
000002a0: 85a2 23bd 5adf 58be d611 fe3e 9d05 30be
000002b0: d1c7 3a3e a1ae 233e a5d0 e33d 7057 173e
000002c0: db3c 033d 5aaf 543c fa0a 7c3e 5367 e83d
000002d0: 4f6a b1bd 1d49 8f3d cc7e 12bd 35c1 143d
000002e0: 7759 873e 1edb bcbd 055b 9dbe 1fa7 4b3c
000002f0: 1a0b 81be 84f9 113e e1e6 023e 58e9 323e
00000300: 0669 78bd 671c 3a3e c7ee c93d 33bf b23e
00000310: 6fa1 f33d 229b 193e 3738 2ebd 8904 eebc
00000320: d56b 7ebd e343 54bd 3b92 74be ff96 58bd
00000330: 33e8 8f3d b8c5 abbd fbd8 85be 1727 623d
00000340: 7772 e5bb a3ab 993e b4c6 923e 5a9d b53d
00000350: f311 98bd 39b8 40bd 09eb 35be ec4f 9abb
00000360: 56cc ad3d 47ac edbd a58c dd3d 4c3b 713e
00000370: 66b5 4d3c 9837 8c3d 81da 9fbe 521f a63c
00000380: 1589 f6bd 7dd9 6c3d e25f babd 0930 d3bd
00000390: c57e ef3c e7a7 46bd 90a3 1cbe 0980 bcbe
000003a0: b059 78bd 0af6 a03c 855f 54be 1a56 63bd
000003b0: 2ffe b23e 790e fabd e63a 473d df7f 353e
000003c0: 7df4 153e c361 fcbd 5856 713e 2071 9b3e
000003d0: c87d 21bd 3f0e bbbd 1ee7 97bc 7d92 6ebc
000003e0: 8904 5cbe df12 4bbe 1918 313d f05b 20be
000003f0: 98ce ee3d 4dd6 9d3d 88b1 4cbe bee4 1fbe

bias f4 [9]
-0.5660348 0.3493037 -0.042511873 -0.16469595 0.2143397 -0.17501144 0.13407235 -0.011882724
0.22905393
00000000: a8e7 10bf efd7 b23e ee20 2ebd 0ea6 28be
00000010: de7b 5b3e 3336 33be 434a 093e c2af 42bc
00000020: 1d8d 6a3e
